…
        An array with (possibly) masked elements.
    compressed : bool, optional
        If True (default), masked elements are skipped.

    

    Examples
    --------
    >>> import numpy as np
    >>> a = np.ma.arange(9).reshape((3, 3))
    >>> a[1, 0] = np.ma.masked
    >>> a[1, 2] = np.ma.masked
    >>> a[2, 1] = np.ma.masked
    >>> a
    masked_array(
      data=[[0, 1, 2],
            [--, 4, --],
            [6, --, 8]],
      mask=[[False, False, False],
            [ True, False,  True],
            [False,  True, False]],
      fill_value=999999)
    >>> for index, x in np.ma.ndenumerate(a):
    ...     print(index, x)
    (0, 0) 0
    (0, 1) 1
    (0, 2) 2
    (1, 1) 4
    (2, 0) 6
    (2, 2) 8

    >>> for index, x in np.ma.ndenumerate(a, compressed=False):
    ...     print(index, x)
    (0, 0) 0
    (0, 1) 1
    (0, 2) 2
    (1, 0) --
    (1, 1) 4
    (1, 2) --
    (2, 0) 6
    (2, 1) --
    (2, 2) 8
    

FUNCTION: numpy.ma.ndim


    Return the number of dimensions of an array.

    Parameters
    ----------
    a : array_like
        Input array.  If it is not already an ndarray, a conversion is
        attempted.

    Returns
    -------
    number_of_dimensions : int
        The number of dimensions in `a`.  Scalars are zero-dimensional.

    

    Examples
    --------
    >>> import numpy as np
…
